{"modelTopology": {"keras_version": "2.0.3", "backend": "tensorflow", "model_config": {"config": [{"config": {"activation": "linear", "kernel_regularizer": null, "filters": 16, "kernel_initializer": {"config": {"mode": "fan_avg", "distribution": "uniform", "seed": null, "scale": 1.0}, "class_name": "VarianceScaling"}, "batch_input_shape": [null, 48, 48, 3], "dtype": "float32", "bias_initializer": {"config": {}, "class_name": "Zeros"}, "bias_constraint": null, "kernel_size": [7, 7], "kernel_constraint": null, "bias_regularizer": null, "data_format": "channels_last", "dilation_rate": [1, 1], "use_bias": true, "activity_regularizer": null, "name": "image_array", "padding": "same", "strides": [1, 1], "trainable": true}, "class_name": "Conv2D"}, {"config": {"axis": -1, "moving_variance_initializer": {"config": {}, "class_name": "Ones"}, "beta_constraint": null, "name": "batch_normalization_1", "gamma_regularizer": null, "center": true, "beta_initializer": {"config": {}, "class_name": "Zeros"}, "gamma_constraint": null, "beta_regularizer": null, "moving_mean_initializer": {"config": {}, "class_name": "Zeros"}, "momentum": 0.99, "epsilon": 0.001, "trainable": true, "gamma_initializer": {"config": {}, "class_name": "Ones"}, "scale": true}, "class_name": "BatchNormalization"}, {"config": {"activation": "linear", "kernel_regularizer": null, "filters": 16, "kernel_initializer": {"config": {"mode": "fan_avg", "distribution": "uniform", "seed": null, "scale": 1.0}, "class_name": "VarianceScaling"}, "data_format": "channels_last", "bias_initializer": {"config": {}, "class_name": "Zeros"}, "bias_constraint": null, "kernel_size": [7, 7], "dilation_rate": [1, 1], "bias_regularizer": null, "kernel_constraint": null, "use_bias": true, "activity_regularizer": null, "name": "conv2d_1", "padding": "same", "strides": [1, 1], "trainable": true}, "class_name": "Conv2D"}, {"config": {"axis": -1, "moving_variance_initializer": {"config": {}, "class_name": "Ones"}, "beta_constraint": null, "name": "batch_normalization_2", "gamma_regularizer": null, "center": true, "beta_initializer": {"config": {}, "class_name": "Zeros"}, "gamma_constraint": null, "beta_regularizer": null, "moving_mean_initializer": {"config": {}, "class_name": "Zeros"}, "momentum": 0.99, "epsilon": 0.001, "trainable": true, "gamma_initializer": {"config": {}, "class_name": "Ones"}, "scale": true}, "class_name": "BatchNormalization"}, {"config": {"name": "activation_1", "activation": "relu", "trainable": true}, "class_name": "Activation"}, {"config": {"padding": "same", "data_format": "channels_last", "name": "average_pooling2d_1", "strides": [2, 2], "pool_size": [2, 2], "trainable": true}, "class_name": "AveragePooling2D"}, {"config": {"name": "dropout_1", "rate": 0.5, "trainable": true}, "class_name": "Dropout"}, {"config": {"activation": "linear", "kernel_regularizer": null, "filters": 32, "kernel_initializer": {"config": {"mode": "fan_avg", "distribution": "uniform", "seed": null, "scale": 1.0}, "class_name": "VarianceScaling"}, "data_format": "channels_last", "bias_initializer": {"config": {}, "class_name": "Zeros"}, "bias_constraint": null, "kernel_size": [5, 5], "dilation_rate": [1, 1], "bias_regularizer": null, "kernel_constraint": null, "use_bias": true, "activity_regularizer": null, "name": "conv2d_2", "padding": "same", "strides": [1, 1], "trainable": true}, "class_name": "Conv2D"}, {"config": {"axis": -1, "moving_variance_initializer": {"config": {}, "class_name": "Ones"}, "beta_constraint": null, "name": "batch_normalization_3", "gamma_regularizer": null, "center": true, "beta_initializer": {"config": {}, "class_name": "Zeros"}, "gamma_constraint": null, "beta_regularizer": null, "moving_mean_initializer": {"config": {}, "class_name": "Zeros"}, "momentum": 0.99, "epsilon": 0.001, "trainable": true, "gamma_initializer": {"config": {}, "class_name": "Ones"}, "scale": true}, "class_name": "BatchNormalization"}, {"config": {"activation": "linear", "kernel_regularizer": null, "filters": 32, "kernel_initializer": {"config": {"mode": "fan_avg", "distribution": "uniform", "seed": null, "scale": 1.0}, "class_name": "VarianceScaling"}, "data_format": "channels_last", "bias_initializer": {"config": {}, "class_name": "Zeros"}, "bias_constraint": null, "kernel_size": [5, 5], "dilation_rate": [1, 1], "bias_regularizer": null, "kernel_constraint": null, "use_bias": true, "activity_regularizer": null, "name": "conv2d_3", "padding": "same", "strides": [1, 1], "trainable": true}, "class_name": "Conv2D"}, {"config": {"axis": -1, "moving_variance_initializer": {"config": {}, "class_name": "Ones"}, "beta_constraint": null, "name": "batch_normalization_4", "gamma_regularizer": null, "center": true, "beta_initializer": {"config": {}, "class_name": "Zeros"}, "gamma_constraint": null, "beta_regularizer": null, "moving_mean_initializer": {"config": {}, "class_name": "Zeros"}, "momentum": 0.99, "epsilon": 0.001, "trainable": true, "gamma_initializer": {"config": {}, "class_name": "Ones"}, "scale": true}, "class_name": "BatchNormalization"}, {"config": {"name": "activation_2", "activation": "relu", "trainable": true}, "class_name": "Activation"}, {"config": {"padding": "same", "data_format": "channels_last", "name": "average_pooling2d_2", "strides": [2, 2], "pool_size": [2, 2], "trainable": true}, "class_name": "AveragePooling2D"}, {"config": {"name": "dropout_2", "rate": 0.5, "trainable": true}, "class_name": "Dropout"}, {"config": {"activation": "linear", "kernel_regularizer": null, "filters": 64, "kernel_initializer": {"config": {"mode": "fan_avg", "distribution": "uniform", "seed": null, "scale": 1.0}, "class_name": "VarianceScaling"}, "data_format": "channels_last", "bias_initializer": {"config": {}, "class_name": "Zeros"}, "bias_constraint": null, "kernel_size": [3, 3], "dilation_rate": [1, 1], "bias_regularizer": null, "kernel_constraint": null, "use_bias": true, "activity_regularizer": null, "name": "conv2d_4", "padding": "same", "strides": [1, 1], "trainable": true}, "class_name": "Conv2D"}, {"config": {"axis": -1, "moving_variance_initializer": {"config": {}, "class_name": "Ones"}, "beta_constraint": null, "name": "batch_normalization_5", "gamma_regularizer": null, "center": true, "beta_initializer": {"config": {}, "class_name": "Zeros"}, "gamma_constraint": null, "beta_regularizer": null, "moving_mean_initializer": {"config": {}, "class_name": "Zeros"}, "momentum": 0.99, "epsilon": 0.001, "trainable": true, "gamma_initializer": {"config": {}, "class_name": "Ones"}, "scale": true}, "class_name": "BatchNormalization"}, {"config": {"activation": "linear", "kernel_regularizer": null, "filters": 64, "kernel_initializer": {"config": {"mode": "fan_avg", "distribution": "uniform", "seed": null, "scale": 1.0}, "class_name": "VarianceScaling"}, "data_format": "channels_last", "bias_initializer": {"config": {}, "class_name": "Zeros"}, "bias_constraint": null, "kernel_size": [3, 3], "dilation_rate": [1, 1], "bias_regularizer": null, "kernel_constraint": null, "use_bias": true, "activity_regularizer": null, "name": "conv2d_5", "padding": "same", "strides": [1, 1], "trainable": true}, "class_name": "Conv2D"}, {"config": {"axis": -1, "moving_variance_initializer": {"config": {}, "class_name": "Ones"}, "beta_constraint": null, "name": "batch_normalization_6", "gamma_regularizer": null, "center": true, "beta_initializer": {"config": {}, "class_name": "Zeros"}, "gamma_constraint": null, "beta_regularizer": null, "moving_mean_initializer": {"config": {}, "class_name": "Zeros"}, "momentum": 0.99, "epsilon": 0.001, "trainable": true, "gamma_initializer": {"config": {}, "class_name": "Ones"}, "scale": true}, "class_name": "BatchNormalization"}, {"config": {"name": "activation_3", "activation": "relu", "trainable": true}, "class_name": "Activation"}, {"config": {"padding": "same", "data_format": "channels_last", "name": "average_pooling2d_3", "strides": [2, 2], "pool_size": [2, 2], "trainable": true}, "class_name": "AveragePooling2D"}, {"config": {"name": "dropout_3", "rate": 0.5, "trainable": true}, "class_name": "Dropout"}, {"config": {"activation": "linear", "kernel_regularizer": null, "filters": 128, "kernel_initializer": {"config": {"mode": "fan_avg", "distribution": "uniform", "seed": null, "scale": 1.0}, "class_name": "VarianceScaling"}, "data_format": "channels_last", "bias_initializer": {"config": {}, "class_name": "Zeros"}, "bias_constraint": null, "kernel_size": [3, 3], "dilation_rate": [1, 1], "bias_regularizer": null, "kernel_constraint": null, "use_bias": true, "activity_regularizer": null, "name": "conv2d_6", "padding": "same", "strides": [1, 1], "trainable": true}, "class_name": "Conv2D"}, {"config": {"axis": -1, "moving_variance_initializer": {"config": {}, "class_name": "Ones"}, "beta_constraint": null, "name": "batch_normalization_7", "gamma_regularizer": null, "center": true, "beta_initializer": {"config": {}, "class_name": "Zeros"}, "gamma_constraint": null, "beta_regularizer": null, "moving_mean_initializer": {"config": {}, "class_name": "Zeros"}, "momentum": 0.99, "epsilon": 0.001, "trainable": true, "gamma_initializer": {"config": {}, "class_name": "Ones"}, "scale": true}, "class_name": "BatchNormalization"}, {"config": {"activation": "linear", "kernel_regularizer": null, "filters": 128, "kernel_initializer": {"config": {"mode": "fan_avg", "distribution": "uniform", "seed": null, "scale": 1.0}, "class_name": "VarianceScaling"}, "data_format": "channels_last", "bias_initializer": {"config": {}, "class_name": "Zeros"}, "bias_constraint": null, "kernel_size": [3, 3], "dilation_rate": [1, 1], "bias_regularizer": null, "kernel_constraint": null, "use_bias": true, "activity_regularizer": null, "name": "conv2d_7", "padding": "same", "strides": [1, 1], "trainable": true}, "class_name": "Conv2D"}, {"config": {"axis": -1, "moving_variance_initializer": {"config": {}, "class_name": "Ones"}, "beta_constraint": null, "name": "batch_normalization_8", "gamma_regularizer": null, "center": true, "beta_initializer": {"config": {}, "class_name": "Zeros"}, "gamma_constraint": null, "beta_regularizer": null, "moving_mean_initializer": {"config": {}, "class_name": "Zeros"}, "momentum": 0.99, "epsilon": 0.001, "trainable": true, "gamma_initializer": {"config": {}, "class_name": "Ones"}, "scale": true}, "class_name": "BatchNormalization"}, {"config": {"name": "activation_4", "activation": "relu", "trainable": true}, "class_name": "Activation"}, {"config": {"padding": "same", "data_format": "channels_last", "name": "average_pooling2d_4", "strides": [2, 2], "pool_size": [2, 2], "trainable": true}, "class_name": "AveragePooling2D"}, {"config": {"name": "dropout_4", "rate": 0.5, "trainable": true}, "class_name": "Dropout"}, {"config": {"activation": "linear", "kernel_regularizer": null, "filters": 256, "kernel_initializer": {"config": {"mode": "fan_avg", "distribution": "uniform", "seed": null, "scale": 1.0}, "class_name": "VarianceScaling"}, "data_format": "channels_last", "bias_initializer": {"config": {}, "class_name": "Zeros"}, "bias_constraint": null, "kernel_size": [3, 3], "dilation_rate": [1, 1], "bias_regularizer": null, "kernel_constraint": null, "use_bias": true, "activity_regularizer": null, "name": "conv2d_8", "padding": "same", "strides": [1, 1], "trainable": true}, "class_name": "Conv2D"}, {"config": {"axis": -1, "moving_variance_initializer": {"config": {}, "class_name": "Ones"}, "beta_constraint": null, "name": "batch_normalization_9", "gamma_regularizer": null, "center": true, "beta_initializer": {"config": {}, "class_name": "Zeros"}, "gamma_constraint": null, "beta_regularizer": null, "moving_mean_initializer": {"config": {}, "class_name": "Zeros"}, "momentum": 0.99, "epsilon": 0.001, "trainable": true, "gamma_initializer": {"config": {}, "class_name": "Ones"}, "scale": true}, "class_name": "BatchNormalization"}, {"config": {"activation": "linear", "kernel_regularizer": null, "filters": 2, "kernel_initializer": {"config": {"mode": "fan_avg", "distribution": "uniform", "seed": null, "scale": 1.0}, "class_name": "VarianceScaling"}, "data_format": "channels_last", "bias_initializer": {"config": {}, "class_name": "Zeros"}, "bias_constraint": null, "kernel_size": [3, 3], "dilation_rate": [1, 1], "bias_regularizer": null, "kernel_constraint": null, "use_bias": true, "activity_regularizer": null, "name": "conv2d_9", "padding": "same", "strides": [1, 1], "trainable": true}, "class_name": "Conv2D"}, {"config": {"name": "global_average_pooling2d_1", "data_format": "channels_last", "trainable": true}, "class_name": "GlobalAveragePooling2D"}, {"config": {"name": "predictions", "activation": "softmax", "trainable": true}, "class_name": "Activation"}], "class_name": "Sequential"}, "training_config": {"sample_weight_mode": null, "loss": "categorical_crossentropy", "metrics": ["accuracy"], "optimizer_config": {"config": {"beta_1": 0.8999999761581421, "epsilon": 1e-08, "beta_2": 0.9990000128746033, "lr": 0.0010000000474974513, "decay": 0.0}, "class_name": "Adam"}, "loss_weights": null}}, "weightsManifest": [{"paths": ["group1-shard1of1"], "weights": [{"name": "batch_normalization_1/gamma", "shape": [16], "dtype": "float32"}, {"name": "batch_normalization_1/beta", "shape": [16], "dtype": "float32"}, {"name": "batch_normalization_1/moving_mean", "shape": [16], "dtype": "float32"}, {"name": "batch_normalization_1/moving_variance", "shape": [16], "dtype": "float32"}]}, {"paths": ["group2-shard1of1"], "weights": [{"name": "batch_normalization_2/gamma", "shape": [16], "dtype": "float32"}, {"name": "batch_normalization_2/beta", "shape": [16], "dtype": "float32"}, {"name": "batch_normalization_2/moving_mean", "shape": [16], "dtype": "float32"}, {"name": "batch_normalization_2/moving_variance", "shape": [16], "dtype": "float32"}]}, {"paths": ["group3-shard1of1"], "weights": [{"name": "batch_normalization_3/gamma", "shape": [32], "dtype": "float32"}, {"name": "batch_normalization_3/beta", "shape": [32], "dtype": "float32"}, {"name": "batch_normalization_3/moving_mean", "shape": [32], "dtype": "float32"}, {"name": "batch_normalization_3/moving_variance", "shape": [32], "dtype": "float32"}]}, {"paths": ["group4-shard1of1"], "weights": [{"name": "batch_normalization_4/gamma", "shape": [32], "dtype": "float32"}, {"name": "batch_normalization_4/beta", "shape": [32], "dtype": "float32"}, {"name": "batch_normalization_4/moving_mean", "shape": [32], "dtype": "float32"}, {"name": "batch_normalization_4/moving_variance", "shape": [32], "dtype": "float32"}]}, {"paths": ["group5-shard1of1"], "weights": [{"name": "batch_normalization_5/gamma", "shape": [64], "dtype": "float32"}, {"name": "batch_normalization_5/beta", "shape": [64], "dtype": "float32"}, {"name": "batch_normalization_5/moving_mean", "shape": [64], "dtype": "float32"}, {"name": "batch_normalization_5/moving_variance", "shape": [64], "dtype": "float32"}]}, {"paths": ["group6-shard1of1"], "weights": [{"name": "batch_normalization_6/gamma", "shape": [64], "dtype": "float32"}, {"name": "batch_normalization_6/beta", "shape": [64], "dtype": "float32"}, {"name": "batch_normalization_6/moving_mean", "shape": [64], "dtype": "float32"}, {"name": "batch_normalization_6/moving_variance", "shape": [64], "dtype": "float32"}]}, {"paths": ["group7-shard1of1"], "weights": [{"name": "batch_normalization_7/gamma", "shape": [128], "dtype": "float32"}, {"name": "batch_normalization_7/beta", "shape": [128], "dtype": "float32"}, {"name": "batch_normalization_7/moving_mean", "shape": [128], "dtype": "float32"}, {"name": "batch_normalization_7/moving_variance", "shape": [128], "dtype": "float32"}]}, {"paths": ["group8-shard1of1"], "weights": [{"name": "batch_normalization_8/gamma", "shape": [128], "dtype": "float32"}, {"name": "batch_normalization_8/beta", "shape": [128], "dtype": "float32"}, {"name": "batch_normalization_8/moving_mean", "shape": [128], "dtype": "float32"}, {"name": "batch_normalization_8/moving_variance", "shape": [128], "dtype": "float32"}]}, {"paths": ["group9-shard1of1"], "weights": [{"name": "batch_normalization_9/gamma", "shape": [256], "dtype": "float32"}, {"name": "batch_normalization_9/beta", "shape": [256], "dtype": "float32"}, {"name": "batch_normalization_9/moving_mean", "shape": [256], "dtype": "float32"}, {"name": "batch_normalization_9/moving_variance", "shape": [256], "dtype": "float32"}]}, {"paths": ["group10-shard1of1"], "weights": [{"name": "conv2d_1/kernel", "shape": [7, 7, 16, 16], "dtype": "float32"}, {"name": "conv2d_1/bias", "shape": [16], "dtype": "float32"}]}, {"paths": ["group11-shard1of1"], "weights": [{"name": "conv2d_2/kernel", "shape": [5, 5, 16, 32], "dtype": "float32"}, {"name": "conv2d_2/bias", "shape": [32], "dtype": "float32"}]}, {"paths": ["group12-shard1of1"], "weights": [{"name": "conv2d_3/kernel", "shape": [5, 5, 32, 32], "dtype": "float32"}, {"name": "conv2d_3/bias", "shape": [32], "dtype": "float32"}]}, {"paths": ["group13-shard1of1"], "weights": [{"name": "conv2d_4/kernel", "shape": [3, 3, 32, 64], "dtype": "float32"}, {"name": "conv2d_4/bias", "shape": [64], "dtype": "float32"}]}, {"paths": ["group14-shard1of1"], "weights": [{"name": "conv2d_5/kernel", "shape": [3, 3, 64, 64], "dtype": "float32"}, {"name": "conv2d_5/bias", "shape": [64], "dtype": "float32"}]}, {"paths": ["group15-shard1of1"], "weights": [{"name": "conv2d_6/kernel", "shape": [3, 3, 64, 128], "dtype": "float32"}, {"name": "conv2d_6/bias", "shape": [128], "dtype": "float32"}]}, {"paths": ["group16-shard1of1"], "weights": [{"name": "conv2d_7/kernel", "shape": [3, 3, 128, 128], "dtype": "float32"}, {"name": "conv2d_7/bias", "shape": [128], "dtype": "float32"}]}, {"paths": ["group17-shard1of1"], "weights": [{"name": "conv2d_8/kernel", "shape": [3, 3, 128, 256], "dtype": "float32"}, {"name": "conv2d_8/bias", "shape": [256], "dtype": "float32"}]}, {"paths": ["group18-shard1of1"], "weights": [{"name": "conv2d_9/kernel", "shape": [3, 3, 256, 2], "dtype": "float32"}, {"name": "conv2d_9/bias", "shape": [2], "dtype": "float32"}]}, {"paths": ["group19-shard1of1"], "weights": [{"name": "image_array/kernel", "shape": [7, 7, 3, 16], "dtype": "float32"}, {"name": "image_array/bias", "shape": [16], "dtype": "float32"}]}]}